…
[2020-07-02 15:07:48] - Validation 	 Epoch: 97 	 Loss: 0.033075

[2020-07-02 15:07:51] - Training 	 Epoch: 98 	 Loss: 0.011674
[2020-07-02 15:07:53] - Validation 	 Epoch: 98 	 Loss: 0.032536

[2020-07-02 15:07:56] - Training 	 Epoch: 99 	 Loss: 0.011477
[2020-07-02 15:07:57] - Validation 	 Epoch: 99 	 Loss: 0.032507


[2020-07-02 15:07:57] - Evaluation: <class 'algorithms.lstm.LSTM_CAE_tile_by_tile.CAE'>
[2020-07-02 15:07:58] - Evaluation 	 Epoch: 0 	 Loss: 0.032544

[2020-07-02 15:07:59] - Saved model as caelstm_section_cae_training_house_1000_model
[2020-07-02 15:07:59] - Model: CAE(
  (encoder): CAEEncoder(
    (conv1): Conv2d(1, 64, kernel_size=(3, 3), stride=(1, 1), padding=(1, 1))
    (bn1): BatchNorm2d(64, eps=1e-05, momentum=0.1, affine=True, track_running_stats=True)
    (conv2): Conv2d(64, 32, kernel_size=(3, 3), stride=(1, 1), padding=(1, 1))
    (bn2): BatchNorm2d(32, eps=1e-05, momentum=0.1, affine=True, track_running_stats=True)
    (conv3): Conv2d(32, 16, kernel_size=(3, 3), stride=(1, 1), padding=(1, 1))
    (bn3): BatchNorm2d(16, eps=1e-05, momentum=0.1, affine=True, track_running_stats=True)
    (conv4): Conv2d(16, 8, kernel_size=(3, 3), stride=(1, 1), padding=(1, 1))
    (bn4): BatchNorm2d(8, eps=1e-05, momentum=0.1, affine=True, track_running_stats=True)
    (latent_linear): Linear(in_features=128, out_features=100, bias=True)
    (bn_latent): BatchNorm1d(100, eps=1e-05, momentum=0.1, affine=True, track_running_stats=True)
  )
  (decoder): CAEDecoder(
    (latent_linear): Linear(in_features=100, out_features=128, bias=True)
    (bn_latent): BatchNorm1d(128, eps=1e-05, momentum=0.1, affine=True, track_running_stats=True)
    (deconv1): ConvTranspose2d(8, 16, kernel_size=(2, 2), stride=(2, 2))
    (bn1): BatchNorm2d(16, eps=1e-05, momentum=0.1, affine=True, track_running_stats=True)
    (deconv2): ConvTranspose2d(16, 32, kernel_size=(2, 2), stride=(2, 2))
    (bn2): BatchNorm2d(32, eps=1e-05, momentum=0.1, affine=True, track_running_stats=True)
    (deconv3): ConvTranspose2d(32, 64, kernel_size=(2, 2), stride=(2, 2))
    (bn3): BatchNorm2d(64, eps=1e-05, momentum=0.1, affine=True, track_running_stats=True)
    (deconv4): ConvTranspose2d(64, 1, kernel_size=(2, 2), stride=(2, 2))
    (bn4): BatchNorm2d(1, eps=1e-05, momentum=0.1, affine=True, track_running_stats=True)
  )
)
[2020-07-02 15:07:59] - Model loss: 0.03254378214478493
