…

[2020-07-20 17:03:19] - Training 	 Epoch: 98 	 Loss: 0.001194
[2020-07-20 17:03:21] - Validation 	 Epoch: 98 	 Loss: 0.003635

[2020-07-20 17:03:27] - Training 	 Epoch: 99 	 Loss: 0.001171
[2020-07-20 17:03:29] - Validation 	 Epoch: 99 	 Loss: 0.003514


[2020-07-20 17:03:29] - Evaluation: <class 'algorithms.lstm.LSTM_CAE_tile_by_tile.CAE'>
[2020-07-20 17:03:32] - Evaluation 	 Epoch: 0 	 Loss: 0.003421

[2020-07-20 17:03:32] - Saved model as caelstm_section_cae_training_uniform_random_fill_1000_house_1000_block_1000_model
[2020-07-20 17:03:32] - Model: CAE(
  (encoder): CAEEncoder(
    (conv1): Conv2d(1, 64, kernel_size=(3, 3), stride=(1, 1), padding=(1, 1))
    (bn1): BatchNorm2d(64, eps=1e-05, momentum=0.1, affine=True, track_running_stats=True)
    (conv2): Conv2d(64, 32, kernel_size=(3, 3), stride=(1, 1), padding=(1, 1))
    (bn2): BatchNorm2d(32, eps=1e-05, momentum=0.1, affine=True, track_running_stats=True)
    (conv3): Conv2d(32, 16, kernel_size=(3, 3), stride=(1, 1), padding=(1, 1))
    (bn3): BatchNorm2d(16, eps=1e-05, momentum=0.1, affine=True, track_running_stats=True)
    (conv4): Conv2d(16, 8, kernel_size=(3, 3), stride=(1, 1), padding=(1, 1))
    (bn4): BatchNorm2d(8, eps=1e-05, momentum=0.1, affine=True, track_running_stats=True)
    (latent_linear): Linear(in_features=128, out_features=100, bias=True)
    (bn_latent): BatchNorm1d(100, eps=1e-05, momentum=0.1, affine=True, track_running_stats=True)
  )
  (decoder): CAEDecoder(
    (latent_linear): Linear(in_features=100, out_features=128, bias=True)
    (bn_latent): BatchNorm1d(128, eps=1e-05, momentum=0.1, affine=True, track_running_stats=True)
    (deconv1): ConvTranspose2d(8, 16, kernel_size=(2, 2), stride=(2, 2))
    (bn1): BatchNorm2d(16, eps=1e-05, momentum=0.1, affine=True, track_running_stats=True)
    (deconv2): ConvTranspose2d(16, 32, kernel_size=(2, 2), stride=(2, 2))
    (bn2): BatchNorm2d(32, eps=1e-05, momentum=0.1, affine=True, track_running_stats=True)
    (deconv3): ConvTranspose2d(32, 64, kernel_size=(2, 2), stride=(2, 2))
    (bn3): BatchNorm2d(64, eps=1e-05, momentum=0.1, affine=True, track_running_stats=True)
    (deconv4): ConvTranspose2d(64, 1, kernel_size=(2, 2), stride=(2, 2))
    (bn4): BatchNorm2d(1, eps=1e-05, momentum=0.1, affine=True, track_running_stats=True)
  )
)
[2020-07-20 17:03:32] - Model loss: 0.003421053057536483
